Model: "sequential_1"
┏━━━━━━━━━━━━━━━━━━━━━━━━━━━━━━━━━━━━━━┳━━━━━━━━━━━━━━━━━━━━━━━━━━━━━┳━━━━━━━━━━━━━━━━━┓
┃ Layer (type)                         ┃ Output Shape                ┃         Param # ┃
┡━━━━━━━━━━━━━━━━━━━━━━━━━━━━━━━━━━━━━━╇━━━━━━━━━━━━━━━━━━━━━━━━━━━━━╇━━━━━━━━━━━━━━━━━┩
│ sequential (Sequential)              │ (None, 150, 150, 3)         │               0 │
|--------------------------------------┼-----------------------------┼-----------------┤
│ conv2d (Conv2D)                      │ (None, 148, 148, 32)        │             896 │
|--------------------------------------┼-----------------------------┼-----------------┤
│ max_pooling2d (MaxPooling2D)         │ (None, 74, 74, 32)          │               0 │
|--------------------------------------┼-----------------------------┼-----------------┤
│ conv2d_1 (Conv2D)                    │ (None, 72, 72, 64)          │          18,496 │
|--------------------------------------┼-----------------------------┼-----------------┤
│ max_pooling2d_1 (MaxPooling2D)       │ (None, 36, 36, 64)          │               0 │
|--------------------------------------┼-----------------------------┼-----------------┤
│ conv2d_2 (Conv2D)                    │ (None, 34, 34, 128)         │          73,856 │
|--------------------------------------┼-----------------------------┼-----------------┤
│ max_pooling2d_2 (MaxPooling2D)       │ (None, 17, 17, 128)         │               0 │
|--------------------------------------┼-----------------------------┼-----------------┤
│ flatten (Flatten)                    │ (None, 36992)               │               0 │
|--------------------------------------┼-----------------------------┼-----------------┤
│ dense (Dense)                        │ (None, 512)                 │      18,940,416 │
|--------------------------------------┼-----------------------------┼-----------------┤
│ dropout (Dropout)                    │ (None, 512)                 │               0 │
|--------------------------------------┼-----------------------------┼-----------------┤
│ dense_1 (Dense)                      │ (None, 1)                   │             513 │
|--------------------------------------┴-----------------------------┴-----------------┘
 Total params: 19,034,177 (72.61 MB)
 Trainable params: 19,034,177 (72.61 MB)
 Non-trainable params: 0 (0.00 B)

